…
2024-01-12 16:53:32,885 - INFO - eval	x: (3566, 12, 170, 9), y: (3566, 12, 170, 9), ind: (3566,)
2024-01-12 16:53:32,885 - INFO - test	x: (3567, 12, 170, 9), y: (3567, 12, 170, 9), ind: (3567,)
2024-01-12 16:53:33,307 - INFO - StandardScaler mean: 229.8431355598314, std: 145.62553066568907
2024-01-12 16:53:33,307 - INFO - NoneScaler
2024-01-12 16:53:34,504 - INFO - Loaded file ./libcity/cache/dataset_cache/pattern_keys_kshape_PeMS08_21_3_16_5.npy
2024-01-12 16:53:34,512 - INFO - Use use_curriculum_learning!
2024-01-12 16:53:39,221 - INFO - PDFormer(
  (pattern_embeddings): ModuleList(
    (0): TokenEmbedding(
      (token_embed): Linear(in_features=3, out_features=64, bias=True)
      (norm): Identity()
    )
  )
  (enc_embed_layer): DataEmbedding(
    (value_embedding): TokenEmbedding(
      (token_embed): Linear(in_features=1, out_features=64, bias=True)
      (norm): Identity()
    )
    (position_encoding): PositionalEncoding()
    (daytime_embedding): Embedding(1440, 64)
    (weekday_embedding): Embedding(7, 64)
    (spatial_embedding): LaplacianPE(
      (embedding_lap_pos_enc): Linear(in_features=8, out_features=64, bias=True)
    )
    (dropout): Dropout(p=0, inplace=False)
  )
  (encoder_blocks): ModuleList(
    (0): STEncoderBlock(
      (norm1): LayerNorm((64,), eps=1e-06, elementwise_affine=True)
      (st_attn): STSelfAttention(
        (gconv): ModuleList(
          (0): gcn(
            (nconv): nconv()
            (mlp): linear(
              (mlp): Conv2d(96, 32, kernel_size=(1, 1), stride=(1, 1))
            )
          )
          (1): gcn(
            (nconv): nconv()
            (mlp): linear(
              (mlp): Conv2d(96, 32, kernel_size=(1, 1), stride=(1, 1))
            )
          )
          (2): gcn(
            (nconv): nconv()
            (mlp): linear(
              (mlp): Conv2d(96, 32, kernel_size=(1, 1), stride=(1, 1))
            )
          )
          (3): gcn(
            (nconv): nconv()
            (mlp): linear(
              (mlp): Conv2d(96, 32, kernel_size=(1, 1), stride=(1, 1))
            )
          )
          (4): gcn(
            (nconv): nconv()
            (mlp): linear(
              (mlp): Conv2d(96, 32, kernel_size=(1, 1), stride=(1, 1))
            )
          )
          (5): gcn(
            (nconv): nconv()
            (mlp): linear(
              (mlp): Conv2d(96, 32, kernel_size=(1, 1), stride=(1, 1))
            )
          )
          (6): gcn(
            (nconv): nconv()
            (mlp): linear(
              (mlp): Conv2d(96, 32, kernel_size=(1, 1), stride=(1, 1))
            )
          )
          (7): gcn(
            (nconv): nconv()
            (mlp): linear(
              (mlp): Conv2d(96, 32, kernel_size=(1, 1), stride=(1, 1))
            )
          )
        )
        (pattern_q_linears): ModuleList(
          (0): Linear(in_features=64, out_features=32, bias=True)
        )
        (pattern_k_linears): ModuleList(
          (0): Linear(in_features=64, out_features=32, bias=True)
        )
        (pattern_v_linears): ModuleList(
          (0): Linear(in_features=64, out_features=32, bias=True)
        )
        (geo_q_conv): Conv2d(64, 32, kernel_size=(1, 1), stride=(1, 1))
        (geo_k_conv): Conv2d(64, 32, kernel_size=(1, 1), stride=(1, 1))
        (geo_v_conv): Conv2d(64, 32, kernel_size=(1, 1), stride=(1, 1))
        (geo_attn_drop): Dropout(p=0, inplace=False)
        (sem_q_conv): Conv2d(64, 16, kernel_size=(1, 1), stride=(1, 1))
        (sem_k_conv): Conv2d(64, 16, kernel_size=(1, 1), stride=(1, 1))
        (sem_v_conv): Conv2d(64, 16, kernel_size=(1, 1), stride=(1, 1))
        (sem_attn_drop): Dropout(p=0, inplace=False)
        (t_q_conv): Conv2d(64, 16, kernel_size=(1, 1), stride=(1, 1))
        (t_k_conv): Conv2d(64, 16, kernel_size=(1, 1), stride=(1, 1))
        (t_v_conv): Conv2d(64, 16, kernel_size=(1, 1), stride=(1, 1))
        (t_attn_drop): Dropout(p=0, inplace=False)
        (expand): Linear(in_features=16, out_features=64, bias=True)
        (proj): Linear(in_features=64, out_features=64, bias=True)
        (proj_drop): Dropout(p=0, inplace=False)
        (reshape1): Linear(in_features=64, out_features=32, bias=True)
        (reshape2): Linear(in_features=32, out_features=64, bias=True)
      )
      (drop_path): Identity()
      (norm2): LayerNorm((64,), eps=1e-06, elementwise_affine=True)
      (mlp): Mlp(
        (fc1): Linear(in_features=64, out_features=256, bias=True)
        (act): GELU()
        (fc2): Linear(in_features=256, out_features=64, bias=True)
        (drop): Dropout(p=0, inplace=False)
      )
    )
    (1): STEncoderBlock(
      (norm1): LayerNorm((64,), eps=1e-06, elementwise_affine=True)
      (st_attn): STSelfAttention(
        (gconv): ModuleList(
          (0): gcn(
            (nconv): nconv()
            (mlp): linear(
              (mlp): Conv2d(96, 32, kernel_size=(1, 1), stride=(1, 1))
            )
          )
          (1): gcn(
            (nconv): nconv()
            (mlp): linear(
              (mlp): Conv2d(96, 32, kernel_size=(1, 1), stride=(1, 1))
            )
          )
          (2): gcn(
            (nconv): nconv()
            (mlp): linear(
              (mlp): Conv2d(96, 32, kernel_size=(1, 1), stride=(1, 1))
            )
          )
          (3): gcn(
            (nconv): nconv()
            (mlp): linear(
              (mlp): Conv2d(96, 32, kernel_size=(1, 1), stride=(1, 1))
            )
          )
          (4): gcn(
            (nconv): nconv()
            (mlp): linear(
              (mlp): Conv2d(96, 32, kernel_size=(1, 1), stride=(1, 1))
            )
          )
          (5): gcn(
            (nconv): nconv()
            (mlp): linear(
              (mlp): Conv2d(96, 32, kernel_size=(1, 1), stride=(1, 1))
            )
          )
          (6): gcn(
            (nconv): nconv()
            (mlp): linear(
              (mlp): Conv2d(96, 32, kernel_size=(1, 1), stride=(1, 1))
            )
          )
          (7): gcn(
            (nconv): nconv()
            (mlp): linear(
              (mlp): Conv2d(96, 32, kernel_size=(1, 1), stride=(1, 1))
            )
          )
        )
        (pattern_q_linears): ModuleList(
          (0): Linear(in_features=64, out_features=32, bias=True)
        )
        (pattern_k_linears): ModuleList(
          (0): Linear(in_features=64, out_features=32, bias=True)
        )
        (pattern_v_linears): ModuleList(
          (0): Linear(in_features=64, out_features=32, bias=True)
        )
        (geo_q_conv): Conv2d(64, 32, kernel_size=(1, 1), stride=(1, 1))
        (geo_k_conv): Conv2d(64, 32, kernel_size=(1, 1), stride=(1, 1))
        (geo_v_conv): Conv2d(64, 32, kernel_size=(1, 1), stride=(1, 1))
        (geo_attn_drop): Dropout(p=0, inplace=False)
        (sem_q_conv): Conv2d(64, 16, kernel_size=(1, 1), stride=(1, 1))
        (sem_k_conv): Conv2d(64, 16, kernel_size=(1, 1), stride=(1, 1))
        (sem_v_conv): Conv2d(64, 16, kernel_size=(1, 1), stride=(1, 1))
        (sem_attn_drop): Dropout(p=0, inplace=False)
        (t_q_conv): Conv2d(64, 16, kernel_size=(1, 1), stride=(1, 1))
        (t_k_conv): Conv2d(64, 16, kernel_size=(1, 1), stride=(1, 1))
        (t_v_conv): Conv2d(64, 16, kernel_size=(1, 1), stride=(1, 1))
        (t_attn_drop): Dropout(p=0, inplace=False)
        (expand): Linear(in_features=16, out_features=64, bias=True)
        (proj): Linear(in_features=64, out_features=64, bias=True)
        (proj_drop): Dropout(p=0, inplace=False)
        (reshape1): Linear(in_features=64, out_features=32, bias=True)
        (reshape2): Linear(in_features=32, out_features=64, bias=True)
      )
      (drop_path): DropPath()
      (norm2): LayerNorm((64,), eps=1e-06, elementwise_affine=True)
      (mlp): Mlp(
        (fc1): Linear(in_features=64, out_features=256, bias=True)
        (act): GELU()
        (fc2): Linear(in_features=256, out_features=64, bias=True)
        (drop): Dropout(p=0, inplace=False)
      )
    )
    (2): STEncoderBlock(
      (norm1): LayerNorm((64,), eps=1e-06, elementwise_affine=True)
      (st_attn): STSelfAttention(
        (gconv): ModuleList(
          (0): gcn(
            (nconv): nconv()
            (mlp): linear(
              (mlp): Conv2d(96, 32, kernel_size=(1, 1), stride=(1, 1))
            )
          )
          (1): gcn(
            (nconv): nconv()
            (mlp): linear(
              (mlp): Conv2d(96, 32, kernel_size=(1, 1), stride=(1, 1))
            )
          )
          (2): gcn(
            (nconv): nconv()
            (mlp): linear(
              (mlp): Conv2d(96, 32, kernel_size=(1, 1), stride=(1, 1))
            )
          )
          (3): gcn(
            (nconv): nconv()
            (mlp): linear(
              (mlp): Conv2d(96, 32, kernel_size=(1, 1), stride=(1, 1))
            )
          )
          (4): gcn(
            (nconv): nconv()
            (mlp): linear(
              (mlp): Conv2d(96, 32, kernel_size=(1, 1), stride=(1, 1))
            )
          )
          (5): gcn(
            (nconv): nconv()
            (mlp): linear(
              (mlp): Conv2d(96, 32, kernel_size=(1, 1), stride=(1, 1))
            )
          )
          (6): gcn(
            (nconv): nconv()
            (mlp): linear(
              (mlp): Conv2d(96, 32, kernel_size=(1, 1), stride=(1, 1))
            )
          )
          (7): gcn(
            (nconv): nconv()
            (mlp): linear(
              (mlp): Conv2d(96, 32, kernel_size=(1, 1), stride=(1, 1))
            )
          )
        )
        (pattern_q_linears): ModuleList(
          (0): Linear(in_features=64, out_features=32, bias=True)
        )
        (pattern_k_linears): ModuleList(
          (0): Linear(in_features=64, out_features=32, bias=True)
        )
        (pattern_v_linears): ModuleList(
          (0): Linear(in_features=64, out_features=32, bias=True)
        )
        (geo_q_conv): Conv2d(64, 32, kernel_size=(1, 1), stride=(1, 1))
        (geo_k_conv): Conv2d(64, 32, kernel_size=(1, 1), stride=(1, 1))
        (geo_v_conv): Conv2d(64, 32, kernel_size=(1, 1), stride=(1, 1))
        (geo_attn_drop): Dropout(p=0, inplace=False)
        (sem_q_conv): Conv2d(64, 16, kernel_size=(1, 1), stride=(1, 1))
        (sem_k_conv): Conv2d(64, 16, kernel_size=(1, 1), stride=(1, 1))
        (sem_v_conv): Conv2d(64, 16, kernel_size=(1, 1), stride=(1, 1))
        (sem_attn_drop): Dropout(p=0, inplace=False)
        (t_q_conv): Conv2d(64, 16, kernel_size=(1, 1), stride=(1, 1))
        (t_k_conv): Conv2d(64, 16, kernel_size=(1, 1), stride=(1, 1))
        (t_v_conv): Conv2d(64, 16, kernel_size=(1, 1), stride=(1, 1))
        (t_attn_drop): Dropout(p=0, inplace=False)
        (expand): Linear(in_features=16, out_features=64, bias=True)
        (proj): Linear(in_features=64, out_features=64, bias=True)
        (proj_drop): Dropout(p=0, inplace=False)
        (reshape1): Linear(in_features=64, out_features=32, bias=True)
        (reshape2): Linear(in_features=32, out_features=64, bias=True)
      )
      (drop_path): DropPath()
      (norm2): LayerNorm((64,), eps=1e-06, elementwise_affine=True)
      (mlp): Mlp(
        (fc1): Linear(in_features=64, out_features=256, bias=True)
        (act): GELU()
        (fc2): Linear(in_features=256, out_features=64, bias=True)
        (drop): Dropout(p=0, inplace=False)
      )
    )
    (3): STEncoderBlock(
      (norm1): LayerNorm((64,), eps=1e-06, elementwise_affine=True)
      (st_attn): STSelfAttention(
        (gconv): ModuleList(
          (0): gcn(
            (nconv): nconv()
            (mlp): linear(
              (mlp): Conv2d(96, 32, kernel_size=(1, 1), stride=(1, 1))
            )
          )
          (1): gcn(
            (nconv): nconv()
            (mlp): linear(
              (mlp): Conv2d(96, 32, kernel_size=(1, 1), stride=(1, 1))
            )
          )
          (2): gcn(
            (nconv): nconv()
            (mlp): linear(
              (mlp): Conv2d(96, 32, kernel_size=(1, 1), stride=(1, 1))
            )
          )
          (3): gcn(
            (nconv): nconv()
            (mlp): linear(
              (mlp): Conv2d(96, 32, kernel_size=(1, 1), stride=(1, 1))
            )
          )
          (4): gcn(
            (nconv): nconv()
            (mlp): linear(
              (mlp): Conv2d(96, 32, kernel_size=(1, 1), stride=(1, 1))
            )
          )
          (5): gcn(
            (nconv): nconv()
            (mlp): linear(
              (mlp): Conv2d(96, 32, kernel_size=(1, 1), stride=(1, 1))
            )
          )
          (6): gcn(
            (nconv): nconv()
            (mlp): linear(
              (mlp): Conv2d(96, 32, kernel_size=(1, 1), stride=(1, 1))
            )
          )
          (7): gcn(
            (nconv): nconv()
            (mlp): linear(
              (mlp): Conv2d(96, 32, kernel_size=(1, 1), stride=(1, 1))
            )
          )
        )
        (pattern_q_linears): ModuleList(
          (0): Linear(in_features=64, out_features=32, bias=True)
        )
        (pattern_k_linears): ModuleList(
          (0): Linear(in_features=64, out_features=32, bias=True)
        )
        (pattern_v_linears): ModuleList(
          (0): Linear(in_features=64, out_features=32, bias=True)
        )
        (geo_q_conv): Conv2d(64, 32, kernel_size=(1, 1), stride=(1, 1))
        (geo_k_conv): Conv2d(64, 32, kernel_size=(1, 1), stride=(1, 1))
        (geo_v_conv): Conv2d(64, 32, kernel_size=(1, 1), stride=(1, 1))
        (geo_attn_drop): Dropout(p=0, inplace=False)
        (sem_q_conv): Conv2d(64, 16, kernel_size=(1, 1), stride=(1, 1))
        (sem_k_conv): Conv2d(64, 16, kernel_size=(1, 1), stride=(1, 1))
        (sem_v_conv): Conv2d(64, 16, kernel_size=(1, 1), stride=(1, 1))
        (sem_attn_drop): Dropout(p=0, inplace=False)
        (t_q_conv): Conv2d(64, 16, kernel_size=(1, 1), stride=(1, 1))
        (t_k_conv): Conv2d(64, 16, kernel_size=(1, 1), stride=(1, 1))
        (t_v_conv): Conv2d(64, 16, kernel_size=(1, 1), stride=(1, 1))
        (t_attn_drop): Dropout(p=0, inplace=False)
        (expand): Linear(in_features=16, out_features=64, bias=True)
        (proj): Linear(in_features=64, out_features=64, bias=True)
        (proj_drop): Dropout(p=0, inplace=False)
        (reshape1): Linear(in_features=64, out_features=32, bias=True)
        (reshape2): Linear(in_features=32, out_features=64, bias=True)
      )
      (drop_path): DropPath()
      (norm2): LayerNorm((64,), eps=1e-06, elementwise_affine=True)
      (mlp): Mlp(
        (fc1): Linear(in_features=64, out_features=256, bias=True)
        (act): GELU()
        (fc2): Linear(in_features=256, out_features=64, bias=True)
        (drop): Dropout(p=0, inplace=False)
      )
    )
    (4): STEncoderBlock(
      (norm1): LayerNorm((64,), eps=1e-06, elementwise_affine=True)
      (st_attn): STSelfAttention(
        (gconv): ModuleList(
          (0): gcn(
            (nconv): nconv()
            (mlp): linear(
              (mlp): Conv2d(96, 32, kernel_size=(1, 1), stride=(1, 1))
            )
          )
          (1): gcn(
            (nconv): nconv()
            (mlp): linear(
              (mlp): Conv2d(96, 32, kernel_size=(1, 1), stride=(1, 1))
            )
          )
          (2): gcn(
            (nconv): nconv()
            (mlp): linear(
              (mlp): Conv2d(96, 32, kernel_size=(1, 1), stride=(1, 1))
            )
          )
          (3): gcn(
            (nconv): nconv()
            (mlp): linear(
              (mlp): Conv2d(96, 32, kernel_size=(1, 1), stride=(1, 1))
            )
          )
          (4): gcn(
            (nconv): nconv()
            (mlp): linear(
              (mlp): Conv2d(96, 32, kernel_size=(1, 1), stride=(1, 1))
            )
          )
          (5): gcn(
            (nconv): nconv()
            (mlp): linear(
              (mlp): Conv2d(96, 32, kernel_size=(1, 1), stride=(1, 1))
            )
          )
          (6): gcn(
            (nconv): nconv()
            (mlp): linear(
              (mlp): Conv2d(96, 32, kernel_size=(1, 1), stride=(1, 1))
            )
          )
          (7): gcn(
            (nconv): nconv()
            (mlp): linear(
              (mlp): Conv2d(96, 32, kernel_size=(1, 1), stride=(1, 1))
            )
          )
        )
        (pattern_q_linears): ModuleList(
          (0): Linear(in_features=64, out_features=32, bias=True)
        )
        (pattern_k_linears): ModuleList(
          (0): Linear(in_features=64, out_features=32, bias=True)
        )
        (pattern_v_linears): ModuleList(
          (0): Linear(in_features=64, out_features=32, bias=True)
        )
        (geo_q_conv): Conv2d(64, 32, kernel_size=(1, 1), stride=(1, 1))
        (geo_k_conv): Conv2d(64, 32, kernel_size=(1, 1), stride=(1, 1))
        (geo_v_conv): Conv2d(64, 32, kernel_size=(1, 1), stride=(1, 1))
        (geo_attn_drop): Dropout(p=0, inplace=False)
        (sem_q_conv): Conv2d(64, 16, kernel_size=(1, 1), stride=(1, 1))
        (sem_k_conv): Conv2d(64, 16, kernel_size=(1, 1), stride=(1, 1))
        (sem_v_conv): Conv2d(64, 16, kernel_size=(1, 1), stride=(1, 1))
        (sem_attn_drop): Dropout(p=0, inplace=False)
        (t_q_conv): Conv2d(64, 16, kernel_size=(1, 1), stride=(1, 1))
        (t_k_conv): Conv2d(64, 16, kernel_size=(1, 1), stride=(1, 1))
        (t_v_conv): Conv2d(64, 16, kernel_size=(1, 1), stride=(1, 1))
        (t_attn_drop): Dropout(p=0, inplace=False)
        (expand): Linear(in_features=16, out_features=64, bias=True)
        (proj): Linear(in_features=64, out_features=64, bias=True)
        (proj_drop): Dropout(p=0, inplace=False)
        (reshape1): Linear(in_features=64, out_features=32, bias=True)
        (reshape2): Linear(in_features=32, out_features=64, bias=True)
      )
      (drop_path): DropPath()
      (norm2): LayerNorm((64,), eps=1e-06, elementwise_affine=True)
      (mlp): Mlp(
        (fc1): Linear(in_features=64, out_features=256, bias=True)
        (act): GELU()
        (fc2): Linear(in_features=256, out_features=64, bias=True)
        (drop): Dropout(p=0, inplace=False)
      )
    )
    (5): STEncoderBlock(
      (norm1): LayerNorm((64,), eps=1e-06, elementwise_affine=True)
      (st_attn): STSelfAttention(
        (gconv): ModuleList(
          (0): gcn(
            (nconv): nconv()
            (mlp): linear(
              (mlp): Conv2d(96, 32, kernel_size=(1, 1), stride=(1, 1))
            )
          )
          (1): gcn(
            (nconv): nconv()
            (mlp): linear(
              (mlp): Conv2d(96, 32, kernel_size=(1, 1), stride=(1, 1))
            )
          )
          (2): gcn(
            (nconv): nconv()
            (mlp): linear(
              (mlp): Conv2d(96, 32, kernel_size=(1, 1), stride=(1, 1))
            )
          )
          (3): gcn(
            (nconv): nconv()
            (mlp): linear(
              (mlp): Conv2d(96, 32, kernel_size=(1, 1), stride=(1, 1))
            )
          )
          (4): gcn(
            (nconv): nconv()
            (mlp): linear(
              (mlp): Conv2d(96, 32, kernel_size=(1, 1), stride=(1, 1))
            )
          )
          (5): gcn(
            (nconv): nconv()
            (mlp): linear(
              (mlp): Conv2d(96, 32, kernel_size=(1, 1), stride=(1, 1))
            )
          )
          (6): gcn(
            (nconv): nconv()
            (mlp): linear(
              (mlp): Conv2d(96, 32, kernel_size=(1, 1), stride=(1, 1))
            )
          )
          (7): gcn(
            (nconv): nconv()
            (mlp): linear(
              (mlp): Conv2d(96, 32, kernel_size=(1, 1), stride=(1, 1))
            )
          )
        )
        (pattern_q_linears): ModuleList(
          (0): Linear(in_features=64, out_features=32, bias=True)
        )
        (pattern_k_linears): ModuleList(
          (0): Linear(in_features=64, out_features=32, bias=True)
        )
        (pattern_v_linears): ModuleList(
          (0): Linear(in_features=64, out_features=32, bias=True)
        )
        (geo_q_conv): Conv2d(64, 32, kernel_size=(1, 1), stride=(1, 1))
        (geo_k_conv): Conv2d(64, 32, kernel_size=(1, 1), stride=(1, 1))
        (geo_v_conv): Conv2d(64, 32, kernel_size=(1, 1), stride=(1, 1))
        (geo_attn_drop): Dropout(p=0, inplace=False)
        (sem_q_conv): Conv2d(64, 16, kernel_size=(1, 1), stride=(1, 1))
        (sem_k_conv): Conv2d(64, 16, kernel_size=(1, 1), stride=(1, 1))
        (sem_v_conv): Conv2d(64, 16, kernel_size=(1, 1), stride=(1, 1))
        (sem_attn_drop): Dropout(p=0, inplace=False)
        (t_q_conv): Conv2d(64, 16, kernel_size=(1, 1), stride=(1, 1))
        (t_k_conv): Conv2d(64, 16, kernel_size=(1, 1), stride=(1, 1))
        (t_v_conv): Conv2d(64, 16, kernel_size=(1, 1), stride=(1, 1))
        (t_attn_drop): Dropout(p=0, inplace=False)
        (expand): Linear(in_features=16, out_features=64, bias=True)
        (proj): Linear(in_features=64, out_features=64, bias=True)
        (proj_drop): Dropout(p=0, inplace=False)
        (reshape1): Linear(in_features=64, out_features=32, bias=True)
        (reshape2): Linear(in_features=32, out_features=64, bias=True)
      )
      (drop_path): DropPath()
      (norm2): LayerNorm((64,), eps=1e-06, elementwise_affine=True)
      (mlp): Mlp(
        (fc1): Linear(in_features=64, out_features=256, bias=True)
        (act): GELU()
        (fc2): Linear(in_features=256, out_features=64, bias=True)
        (drop): Dropout(p=0, inplace=False)
      )
    )
  )
  (skip_convs): ModuleList(
    (0): Conv2d(64, 256, kernel_size=(1, 1), stride=(1, 1))
    (1): Conv2d(64, 256, kernel_size=(1, 1), stride=(1, 1))
    (2): Conv2d(64, 256, kernel_size=(1, 1), stride=(1, 1))
    (3): Conv2d(64, 256, kernel_size=(1, 1), stride=(1, 1))
    (4): Conv2d(64, 256, kernel_size=(1, 1), stride=(1, 1))
    (5): Conv2d(64, 256, kernel_size=(1, 1), stride=(1, 1))
  )
  (end_conv1): Conv2d(12, 12, kernel_size=(1, 1), stride=(1, 1))
  (end_conv2): Conv2d(256, 1, kernel_size=(1, 1), stride=(1, 1))
)
2024-01-12 16:53:39,227 - INFO - pattern_embeddings.0.token_embed.weight	torch.Size([64, 3])	cuda:0	True
2024-01-12 16:53:39,227 - INFO - pattern_embeddings.0.token_embed.bias	torch.Size([64])	cuda:0	True
2024-01-12 16:53:39,227 - INFO - enc_embed_layer.value_embedding.token_embed.weight	torch.Size([64, 1])	cuda:0	True
2024-01-12 16:53:39,228 - INFO - enc_embed_layer.value_embedding.token_embed.bias	torch.Size([64])	cuda:0	True
…
